simulated_parameters.npz (npz, 17026 bytes, 4 tensors)

sigma_e2 f8 []
0	0x40a9f340f5b99dca	3321.626874733459

sigma_g2 f8 []
0	0x40a9f340f5b99dca	3321.626874733459

h2 f8 []
0	0x3fe0000000000000	0.5

beta f8 [2001]
0	0xc010dd65ac02228e	-4.216208160047826
1	0x3fb578b0c8bda37a	0.08387284184358448
2	0x3fcda1c4ef4f0d6c	0.23149930653572015
3	0xbff26ee09842c9d2	-1.152069659012899
4	0x3ff47540af500921	1.2786261413717244
5	0xc001789891a9e343	-2.183884752270758
6	0xbfe36f69aaf2ce22	-0.6073501910054271
7	0xbfef10121779be8e	-0.9707117517954928
8	0xbff7735e968b07c0	-1.4656663780774437
9	0xc00514585d5d0159	-2.6349341672904925
10	0xbfed78d3c1212d94	-0.9209994098722967
11	0x3fff5a5b111a92b3	1.9595595043294167
12	0x400a1a4e32d0c7fb	3.262844464298721
13	0x3fda5dd0d4ec513d	0.4119760588958064
14	0x3fe50c44ab7d673b	0.657747588101507
15	0xbfd7979e3218bed4	-0.3686290253854001
16	0xbfc4cc0ff4b1428a	-0.16247748802063128
17	0xbfe40cca6fbb4844	-0.6265613729722266
18	0x40001deb278467d7	2.014608677604865
19	0xbfe742eddd4b9be4	-0.7269200632261996
20	0xbffae37b7c74d005	-1.6805376874517617
21	0x3f88c0b1d72a3973	0.012086285952389563
22	0xbfe1824c781057bf	-0.5471556038853506
23	0xbfc9244eac160c77	-0.1964205112709327
24	0x3ff12e6f9f3788d8	1.0738369197284126
25	0xbfe4939d83238aa3	-0.6430194436364512
26	0xc008f271c43db569	-3.1183810550052624
27	0xbff587af682f6315	-1.3456262655001343
28	0x3fe7b8f6e65b7936	0.7413286685148595
29	0x3fbdb204ff2b39e6	0.1159976122828322
30	0xc00f42a191419c25	-3.90753472787357
31	0x4005d72396158bfe	2.7300483441663337
32	0xbff7c158467606ba	-1.484703326452673
33	0x3ffe73993efca613	1.9032223186899315
34	0x40045c5fefa19683	2.5451048585117078
35	0x4003eebcd1752590	2.491571079623732
36	0x400681fb22b13c9a	2.813467284234844
37	0x3ff38b8132f61e6d	1.221558760707832
38	0xbffa2341960f946f	-1.6336074697258274
39	0x3fe719e8437eda17	0.7219125097533973
40	0xc00875d383f9cd8c	-3.0575323401078034
41	0x4002ef43482f89bd	2.3668275489337405
42	0xbfdc456f19520fbe	-0.4417379138251326
43	0xbfea0d042eeda0ac	-0.8140889088217782
44	0xc009249b7a032f20	-3.1428746731015877
45	0xbff8fc6b2e13ad6c	-1.5616256523015535
46	0x3ff0b7d0a10c373c	1.0448766985823132
47	0xc0012a1937b264a3	-2.145555911189676
48	0x3ff026bd5af4c1c5	1.0094579270336095
49	0xbfe763c00b6fe5e4	-0.7309265349751368
50	0xc01069b837f0f11a	-4.103241800385399
51	0xc0049f09027ce5df	-2.577653903423865
52	0xbff3f1ae1c7a6125	-1.2465039360450387
53	0xbff34b71748bc165	-1.205918746240138
54	0x3ff706213881fd74	1.4389965255103023
55	0xbfddf0c4b669d735	-0.46782033742725854
56	0x3fc7a5163d990644	0.18472555167868354
57	0x3ff8e5e30430f6bc	1.5561247028085026
58	0xbfbedfa293bdb67f	-0.12059990031203859
59	0xc0070e0ccdff3126	-2.8818603604796804
60	0x3fefde6e0da24d4b	0.9959020868576912
61	0x3ffedda364bfa2ed	1.9291109023562811
62	0xbff84aec2903d332	-1.518291626181235
63	0xbff328afc5e107d3	-1.1974332551621856
64	0xc001f68fde962ed1	-2.2453915967542817
65	0x40066103ad5f9e66	2.7973702950292134
66	0xbfffe5770b9f9475	-1.993521733669039
67	0xc0015cd3048ba5e5	-2.1703243594281383
68	0x400836ab613bb1e4	3.0266940685598787
69	0xc006e0db733cf59b	-2.8597935679415065
70	0xc0011a6f59e63048	-2.1379076979992853
71	0xbffef3b27ea7e7e3	-1.934496397733249
72	0xbff150f9e31e79ba	-1.0822695609891597
73	0xbfccd9586d8c4707	-0.22538285588284898
74	0x3fc905df46d0f10f	0.19549170453854756
75	0xc0022d2d04f077ff	-2.2720585237393602
76	0xbff2992fb0c8faf4	-1.1623989968936117
77	0xc0014d9ad5d75734	-2.1628929811803577
78	0x4001bac93632645e	2.2162040933731495
79	0xbfe40b1e55d5a73b	-0.6263572384316157
80	0xbff62a979846193c	-1.3853984783359712
81	0xbfca3f02dd0e50c5	-0.20504794877763835
82	0xc002a2dfb1122315	-2.32952822052574
83	0x3fe214e09e5e3958	0.5650485127569409
84	0xc004e6049cbedeeb	-2.612313484740175
85	0x3ffa624df96930e7	1.6490001433003785
86	0x40001081371118e8	2.0080589582531623
87	0xbfdead85ff348e59	-0.4793410293807248
88	0xbff127fc3ef566aa	-1.0722620448417879
89	0x3ffa1c3e55f44d2f	1.6318953855123473
90	0x3fe29ffbcd11bbd2	0.582029247785494
91	0x3fe951e391e0bb2e	0.7912462090660932
92	0xbfe4112ef808debe	-0.6270975918223127
93	0x3fc54ccf989b5438	0.16640658332349445
94	0x3feebe76bae07908	0.9607499742449201
95	0xbff31560014e8453	-1.1927185107272364
96	0xbffbc7e5a2fefae6	-1.7363029830009338
97	0xbfb3eb4280bf516d	-0.07780852931256783
98	0x401097257413ad69	4.147603810978901
99	0xbfdc17fd914f0c01	-0.4389642638236069
100	0x4011d3fa7e696587	4.457010245497606
101	0x3f91877b21bbe01b	0.01711838143725695
102	0xbfff25f383f8f0d7	-1.946765437619481
103	0x3fd36eb1fa50025f	0.30363130039771663
104	0x3fda0261a650657f	0.4063953518067009
105	0x3fe91a4bb542d66f	0.784459928536945
106	0x3fd129943c0724d8	0.26816278326130094
107	0x3fced43ae83da236	0.24085174884682353
108	0x4001e75505ef5382	2.2379551376020013
109	0xbfd35cc9d0acc50f	-0.30253835085302766
110	0xc009ec3bc88e0eb0	-3.240348402819869
111	0x3feca499e2726d4a	0.8950929091255742
112	0x3fe958d941c793cd	0.7920957836873811
113	0x3ff7e2e8b55a60e9	1.4928977092841313
114	0xbfe22c9d81eaf36b	-0.5679461991745546
115	0xc010d7af9cb451d3	-4.210630844598614
116	0x3ff959f8452739c8	1.5844652844713085
117	0xbfe6597bedb8b0ef	-0.6984233515736643
118	0x3fe01bc0c6994141	0.5033878210906907
119	0x4003f08dcb7e9588	2.49245795230917
120	0xc00cdd2e14aba1c1	-3.6079980482938656
121	0x3fe3d1e561eb6573	0.6193720734110414
122	0x4005baa7ab4c9b09	2.7161401160004783
123	0xbfe9b314e3f8a2c4	-0.8031105473101765
124	0x3fd471da2bc59719	0.3194489886721939
125	0xbfea1260d9c2d5cb	-0.814743447603797
126	0xbfd8f0a7932eee05	-0.3896883904778579
127	0x4006811ff930e422	2.8130492656751054
128	0x40020e0c0bd9cbfd	2.2568589139787023
129	0xbfff8830eca9a1e2	-1.9707497830041736
130	0xbffc28393ab77d5b	-1.7598202031729986
131	0xbf917b244dbe82fb	-0.017071311230782076
132	0xbfb1868bb8bead08	-0.06845925579425594
133	0x400dd10de28f2aa7	3.7270772647801382
134	0xbff4ca6eebf32b2f	-1.299422189406595
135	0x3ff150e0cc35d2fa	1.08224563378934
136	0xbffcde17accbf910	-1.804221796977405
137	0xc000fdeb37e5816e	-2.1239837996401354
138	0xbfe16eab7c165104	-0.5447595046594249
139	0x3fed09c46aa9f1c1	0.9074422915724015
140	0x3fe1fcf3fa56e809	0.5621280564730579
141	0x3fce4d79d96669ed	0.23673937907444956
142	0x3f8882b8cd375fbf	0.011968082201675998
143	0x3fdfdfbe6a92d524	0.498031238628146
144	0xbff5b6b37b8008b3	-1.357104761526483
145	0x3fe3e05c61d98c4b	0.6211378012780043
146	0x3fec0184886fad3d	0.8751852669496781
147	0x3fe18568d8ed8de4	0.5475353466867401
148	0x3ff4b1b35fe37b33	1.293383955540503
149	0x3ff72083b81193bf	1.445438117044645
150	0x3ffaef75b81d0c34	1.6834618751461337
151	0x400165b554a27482	2.174662266929375
152	0xbfe5e5e4972e8962	-0.6843131020325866
153	0xbfe25e37e989ae91	-0.5740012704167886
154	0x3ffd937de52b6683	1.8485087348875886
155	0xc002fda408c4c95a	-2.373848026757668
156	0xbfe256d974c38b0d	-0.5731017380279312
157	0x3fed3410b0ae6a45	0.9126056147391145
158	0xbffae4c889da7013	-1.6808553109067403
159	0xbf5ca65e9da3a94d	-0.0017486499769413133
160	0x4000c8aaa0a7c15c	2.0979816962427957
161	0x3fd753e910a22c76	0.36449648498882625
162	0x3fe6cec6b6792c86	0.7127412380153977
163	0xbfdd36b92595f680	-0.45646504087913087
164	0xbfe0dfe4c0890a5e	-0.5273307571845398
165	0x3fea6730953d50de	0.8250964083513528
166	0xbff7f5abb302eaac	-1.4974781983025123
167	0x3ff4a2f2fb02f903	1.2897825055256937
168	0x3fabc5dcbb79a020	0.05424394405855559
169	0xbffc323dd6293e45	-1.7622660031955928
170	0x3ff5c231001ec2a1	1.3599100117391247
171	0xbfd544007446fee6	-0.3322754989166995
172	0x3fff0b6a26b10288	1.9402867804894033
173	0x3fe0b2eb5048a4cc	0.5218407218973424
174	0xbff933e59feb6c59	-1.5751701590404734
175	0xbff865a1d561d17d	-1.5248125396002188
176	0xbff53cc7e7b120d7	-1.3273390818085795
177	0x3ff1d98921268768	1.1156092925015972
178	0xbff4d9f5d6629c92	-1.303212964479631
179	0xbfe18e973a5d532d	-0.5486560954983354
180	0xbff4e1180933be6d	-1.3049545630891786
181	0xbfa2ba1fd5246050	-0.03657626606781206
182	0x3febb5fa556c3dc4	0.8659640949644474
183	0xbfd1657eb4e6eda6	-0.27181976000039254
184	0xbff955f389dc64f6	-1.583484209555818
185	0xbfe6ec33f1772044	-0.7163333622093053
186	0xbfd20a191e82641b	-0.2818663404410146
187	0xbfd433233ac1383f	-0.3156211923386571
188	0x401043c63e7ca618	4.066185928686103
189	0x3fe5f8c1a52a33af	0.686615774715042
190	0x3ff2f2463c4361ab	1.1841490129500964
191	0xbfed7d00fb47bf72	-0.9215092571084667
192	0x3ff711ed4d1f26ea	1.4418766987386626
193	0xc0011c8d8ff6ae2b	-2.138941883769595
194	0xbffbe52489476898	-1.743443046804293
195	0xc008f1b50a257665	-3.1180210869486467
196	0x3fc45c28cfe7a5e7	0.15906248237233386
197	0xc003c1bcc1c5d8d9	-2.4695983065131313
198	0xbff99abc25e5c210	-1.6002770882006452
199	0x3ff039f3867fc7ca	1.0141482595322366
200	0xc003a01f7b14aa76	-2.4531850448304864
201	0x3fdcb8bf50732857	0.4487760816233552
202	0x3ff0fb8993465dea	1.061410498897994
203	0x4012ae5f14499f28	4.670284573548805
204	0x400c2450d404a316	3.5177322925486676
205	0xc0045df350621c08	-2.5458742408695834
206	0xbfb3e69affbeb1b0	-0.07773751014491981
207	0xbfe112b5a03bd97e	-0.5335338716093216
208	0x3ff45c28db5eede6	1.2724999016926346
209	0x3ffe4799a2d78920	1.892480503178895
210	0x4010255678cc0a69	4.036462676480917
211	0x400557d63a7daef4	2.667889077148965
212	0xbfde132349ae170f	-0.4699180812389025
213	0x3fd7a9f01cc713c4	0.36974718866650513
214	0x3fe88f9c03edc545	0.7675304486021238
215	0x3fd6e77fc344b9dd	0.3578795821112218
216	0x3ff9c920796c5462	1.6116032355396546
217	0xbfe61c39f6ec0618	-0.6909456083960235
218	0xbfe657c7b342ae85	-0.6982153416806375
219	0xc011d19ab72928e5	-4.454691755187217
220	0x4000336ed2d9025f	2.0251137230373355
221	0x3feac46c72a7e702	0.8364774932262835
222	0xbfe1f8f38338f4bc	-0.5616395533503673
223	0x400ca895c8fda7e6	3.5823169424447654
224	0xbfe3687f553d95a9	-0.6065060295920165
225	0x3ff1d4e7ded7ba20	1.1144789414207779
226	0xc0108bc9c726eb01	-4.136511909246793
227	0xc00a1e43ab1b2820	-3.2647775046980456
228	0xc002c1ce254ede7f	-2.344631473035235
229	0xbff959027c892417	-1.5842308869052937
230	0x40110cdeae881a4b	4.262568213517237
231	0xc00ac8b072a5b427	-3.347992797548176
232	0xc00638603e49cb98	-2.7775273195524726
233	0xbff18c5deab406b6	-1.0967692535490818
234	0xbf6747aadaf005b4	-0.0028417908683883945
235	0xbfd2c4253d388125	-0.2932217691286659
236	0xbfc71ed7533d1202	-0.18062869610197657
237	0x3fe35407cfe8ff1d	0.6040076313729262
238	0x3ff49346a3afa549	1.2859560388554476
239	0x40125b3605ca09cf	4.589073267418327
240	0xbfd38d53d30aef6c	-0.30550094232216085
241	0xbff3e352b7000a6a	-1.242998804897662
242	0xc003411ca4ff486f	-2.406792916336648
243	0x3fe1f25b41423c32	0.5608345293602552
244	0x3ff4cdf34bfb3252	1.3002808540360502
245	0xbffc0ae9da58b9f4	-1.7526644257701465
246	0xbfb5ae40ab46f71b	-0.08469013387272321
247	0x3fc9fce7b199275a	0.20303054973401907
248	0xbff0f8ea94b0e094	-1.060770588706906
249	0x3fe76a184b5560fc	0.7317010375363959
250	0x3fa08d2c3862c4c0	0.03232706249526407
251	0xbfd03f37cfd7dd04	-0.2538585214346798
252	0xbff25713fe53d9cc	-1.1462593016309368
253	0xbff14fe6ae9c6c87	-1.0820071049445532
254	0x40068731f924f274	2.816013285102878
255	0xc00298fb0aa403da	-2.324697573786108
