Parameters/simulated_parameters_10000_SNPs.npz (npz, 81298 bytes, 4 tensors)

sigma_e2 f8 []
7824.7114220862595
00000000: 2302 c21f b690 be40

sigma_g2 f8 []
7824.7114220862595
00000000: 2302 c21f b690 be40

h2 f8 []
0.5
00000000: 0000 0000 0000 e03f

beta f8 [10001]
32.48690727326483 32.48690727326483 -12.235128273001507 -10.563435045269113 -21.45937244312341 17.30815258649357 -46.03077393760565 34.8962352843296
-15.224138017902057 6.380781921141971 -4.987407509548202 2.06773287422235 -2.913478931768513 -0.4559667826583154 -0.5431348770605202 1.6033921219549565
-1.5554811473712338 -0.24385030965350918 -1.2414792804677925 0.05969925312377408 0.8242251795942898 -1.5565105674224302 1.618883795625226 1.2750418247720632
0.7106343090907244 1.27400270119422 -0.9669372114166636 -0.1737930236115605 -1.3233778251833734 -0.3788509554051953 0.7500358939398556 -0.9781560156511022
-0.5610942185990813 -0.9718089522016773 -1.1953012812017414 -0.9492853819198946 -0.017910447553125944 -1.580115448419821 0.3315138590860849 2.347314749725169
1.0494089157682267 -0.27129643989512986 -1.2552969193639565 -1.0566413922619755 2.393492250474185 0.07185301587798656 -0.9008478825509982 0.26999526768376314
2.9702092984521347 0.16993042024006422 0.8728570084870816 0.42450493750340257 -0.4981565102549749 -1.6157647309009802 -0.4940452159526308 -0.2954210579401417
0.8296104729724489 1.1865017225074044 1.316777191333307 0.4038814686164291 1.2517786391263754 -1.0668797995838044 1.771823136996276 0.7253923085807442
-0.42156693024850717 0.6908689882986954 -0.10687454148614443 1.600365627313766 2.149345554106974 3.090870381508288 -1.9749440574516521 -2.0422853292487466
-0.7134224651331184 0.22632659409556677 1.2390899711723677 0.4463752231479945 -2.8598243852656675 -0.43303786751210593 1.1709329688761838 0.32540309538295925
1.0776465458771955 -0.3144194745767897 -0.2839147838366351 0.2638376493508214 0.5799006007553438 0.2804381536180668 0.16830364094056424 -0.9484597010420945
0.5339558272759816 0.1722812936216182 1.5973314610512008 1.6955259259283089 0.26185071676620825 -0.5307330661719496 -0.9033012049218544 0.5989114591059019
0.10937537357339487 -0.4862825314644533 0.061655266211830186 -0.8768136021942093 0.9871663695558105 -0.6323352804447758 1.731715403366287 0.5706233521247361
0.8394467978952534 -1.5484391818499397 0.23954293405932134 1.0473049768432396 -1.3487363255201639 -0.3764898217450256 0.04612393426439826 -1.9418811370223625
0.44570268653546835 1.1966518637611552 -1.2155391006004659 0.4957468772621303 -1.8558489978492057 -0.05472371400698326 -2.2850471777289108 1.5859241320722306
0.5782726864119162 -0.0348136328638658 -1.0962440748601137 1.8013629115836989 2.7819019723638854 -2.6275831513438463 1.7481999371841663 2.301845769909966
0.4780207255363631 -1.6960211162489158 1.2209546570820617 -0.25585994490755765 -0.8540727424220984 -1.739564897967582 0.7785775934044871 1.1211982221256496
-0.8818056144695535 0.7362061161396689 -1.6183431131899226 1.1340027464109403 0.06585610499450188 -0.26384950176022753 -0.14389039284620128 1.2287905873959368
1.0612423184597293 0.7487770425058712 0.19473891873348903 0.11005569453332015 0.8745217532221412 0.32879695876852527 0.9652734566045914 -0.43857134702862594
-3.4433805881784987 1.4691198408764141 3.092856277384919 0.6241835820439434 -0.1416408892521666 -0.19296200733229352 -0.1683680470084493 0.024620621330757233
-1.5867741034304685 -0.73128199541875 -1.4100088617128244 0.35185514834163756 -0.4195139408408579 0.7003345706103683 -0.24706757789727818 1.3948885996626146
0.30198253929502017 3.0981172677960607 -2.6818593363069425 -0.9148783542555785 1.274894988471172 3.5755925046621497 -0.35162267472282344 0.061757282408056044
-0.32005667112093417 1.8829647063394934 -0.40631467710422353 0.9617639909165147 -0.4522677584311015 -1.7996698505855093 0.4434234387305538 0.7116107875404137
1.8288975822890399 -0.15619568268314823 -0.8730818033966636 0.7958643752145828 0.3404536608088637 0.39692035855132685 -0.10339697722116643 1.640966542629792
0.522541610696624 2.693594177027837 1.5712714516697412 0.9320371599241403 -2.301545373225476 0.8518080950728802 0.5943687924217227 1.1468588541079372
1.47706417544837 -0.5669273756875028 1.1653199210841965 -0.7952199667432457 2.7646150864635852 -1.8836641112141383 -2.4899896412311198 -2.3344724018261256
-1.2594357851704776 -1.582668174503739 2.7663133146895857 -0.46174001829017647 -1.8988303112075713 1.5759755194396836 -0.8294701089379837 -1.749174819771801
1.2386232899359473 0.881567244387066 -0.6151216400800975 1.990562157923775 0.18257720495069912 2.28671205237773 0.7109829736836766 2.2044839366469295
0.15471877704502707 -1.7249790688363407 3.4639303627540943 -0.7718412303538391 -0.2811992024107597 -0.9905130647254774 -0.2876431882370809 0.3431864147513726
0.28543097625980424 0.9348238557258354 2.5344944450515223 -0.17036263120877457 -1.743896068111822 -1.6720503295494729 -0.9415190688483703 -2.367670417202871
1.1667683670839075 -0.7045803786453017 -0.4397991740101944 -0.002674960682500787 -1.9751195459501305 -1.2180852789033163 0.9541861903173734 0.8747464276164415
-0.6267397548599114 2.5604830307062274 -1.8465767226368364 -0.4878855914464291 -0.3264566954769025 -3.9500186880680954 2.740079525704513 0.5180717032940083
00000000: b26d 3ffa 523e 4040 b26d 3ffa 523e 4040
00000010: 18d0 a5bb 6278 28c0 c6b3 e98e 7a20 25c0
00000020: 0fe6 b36e 9975 35c0 ee2a 8116 e34e 3140
00000030: efca 7f66 f003 47c0 c3db 79d6 b772 4140
00000040: f45b e137 c272 2ec0 edd9 28b2 eb85 1940
00000050: 5c56 45f4 1af3 13c0 4e31 7d88 b78a 0040
00000060: 093f cc0a ce4e 07c0 851b e54c 8f2e ddbf
00000070: 5e57 c964 5c61 e1bf 8b5e 677f 7ea7 f93f
00000080: 6810 1833 40e3 f8bf e067 8aa8 7c36 cfbf
00000090: 1e55 c460 19dd f3bf bc43 8687 e690 ae3f
000000a0: dfb5 dc7b 0d60 ea3f e852 ef9f 77e7 f8bf
000000b0: 4ec1 e3b1 f2e6 f93f cdd9 a641 9266 f43f
000000c0: 19ba 9e29 84bd e63f 3f51 0aa8 5062 f43f
000000d0: 813d 8a4e 26f1 eebf 3da1 578c d93e c6bf
000000e0: 8aa0 f639 8e2c f5bf c883 e113 183f d8bf
000000f0: 9d87 6946 4b00 e83f c26d 33d8 0d4d efbf
00000100: 8472 dbdc 7bf4 e1bf c451 7516 0f19 efbf
00000110: d70d 7a3c f41f f3bf 9156 bdbc 8b60 eebf
00000120: 3456 fdc9 1d57 92bf 4ee1 ed22 2748 f9bf
00000130: dc82 bce7 8537 d53f 7ae7 9bf4 4cc7 0240
00000140: 86af d500 61ca f03f 64bb 37be eb5c d1bf
00000150: fe00 f738 b215 f4bf 6bd7 f5cd 00e8 f0bf
00000160: e720 d843 df25 0340 aa9e 5091 f564 b23f
00000170: c046 47f0 bed3 ecbf a4b2 313b 9a47 d13f
00000180: 2404 b917 fdc2 0740 0868 c3ae 47c0 c53f
00000190: 452a 31d2 71ee eb3f 2e54 e4c1 162b db3f
000001a0: 2f6a f5d7 cbe1 dfbf ccff 531e 2cda f9bf
000001b0: 71c1 50d3 6f9e dfbf afc4 99b9 2de8 d2bf
000001c0: 8cbe 3a43 2b8c ea3f 4e12 ed3a e9fb f23f
000001d0: 1a53 cef5 8411 f53f bbc0 caa8 31d9 d93f
000001e0: 1311 ce09 4907 f43f 8b9b 7f8d f011 f1bf
000001f0: 441f bb37 6359 fc3f bff9 43ee 6936 e73f
00000200: 5384 9fdc f3fa dabf 3808 d247 991b e63f
00000210: 8b3e 7544 215c bbbf 4b48 effc 189b f93f
00000220: 248a f514 dc31 0140 6e06 2640 1aba 0840
00000230: 44f3 a2f0 5e99 ffbf abca d1b0 9956 00c0
00000240: 694f 7f59 5bd4 e6bf e081 ed13 45f8 cc3f
00000250: 5aca 6f01 50d3 f33f e894 4a62 6991 dc3f
00000260: 9f27 789b ebe0 06c0 8a38 b975 e4b6 dbbf
00000270: 321a 7235 24bc f23f 75f7 2b81 67d3 d43f
00000280: e809 f34d 0a3e f13f a519 22dc 721f d4bf
00000290: f378 dbe9 a82b d2bf 2b94 da4e b7e2 d03f
000002a0: 3a99 65b4 8b8e e23f 2ec6 95de b2f2 d13f
000002b0: f797 d144 f98a c53f 6a97 b128 c859 eebf
000002c0: 3f16 f587 2a16 e13f 56a1 e83c 500d c63f
000002d0: 8e63 216f ab8e f93f 831d 16cb df20 fb3f
000002e0: 437b 3c82 29c2 d03f 92a8 43e9 c3fb e0bf
000002f0: cf74 b2ed d7e7 ecbf 58e7 415d 482a e33f
00000300: 9f4a 7c44 0600 bc3f f660 50c4 401f dfbf
00000310: 6510 0370 4791 af3f 2f96 4366 db0e ecbf
00000320: 1381 1eed dd96 ef3f edc0 b332 173c e4bf
00000330: 9e00 f735 1bb5 fb3f 52b5 76e7 8b42 e23f
00000340: 2725 f687 bfdc ea3f 703f de29 68c6 f8bf
00000350: d7e6 e2c5 57a9 ce3f 10ad 07dd c2c1 f03f
00000360: be94 908a 6c94 f5bf 07fe eac3 6818 d8bf
00000370: a8f6 746a 8e9d a73f 7baf 83f4 f111 ffbf
00000380: f12f 9a8f 6486 dc3f 64d3 b86c 7c25 f33f
00000390: 7e69 c120 d972 f3bf a4d6 3b1c 51ba df3f
000003a0: 373a 01b8 8eb1 fdbf 6d88 f323 bf04 acbf
000003b0: 5b4d 91d0 c647 02c0 a7ff 92fb f15f f93f
000003c0: 53e5 89b8 3581 e23f e9e3 35ad 17d3 a1bf
000003d0: d253 1f3a 378a f1bf 52ab 97ea 61d2 fc3f
000003e0: a5d8 3fd2 5541 0640 ea56 b450 4a05 05c0
000003f0: 3834 517f a0f8 fb3f 0e98 711d 2e6a 0240
00000400: ac49 bf3d e497 de3f 06d5 b909 e722 fbbf
00000410: c50f 21c0 0789 f33f 21ff ee63 0260 d0bf
00000420: 4874 235c 9054 ebbf 3da5 a000 42d5 fbbf
00000430: d342 a28e 1bea e83f e2ce 058c 6df0 f13f
00000440: e96d 7268 c037 ecbf faeb fd20 008f e73f
00000450: 80b8 8dbf bbe4 f9bf f68b 5610 e024 f23f
00000460: ef7d 3119 f2db b03f 8f11 4805 e9e2 d0bf
00000470: d3d3 bd19 006b c2bf 8af8 a751 20a9 f33f
00000480: eea6 ae39 d9fa f03f bfdd b145 fbf5 e73f
00000490: 94ff 9b73 34ed c83f 5c59 c228 9c2c bc3f
000004a0: 8859 370b 15fc eb3f 4bd8 3b66 020b d53f
000004b0: f908 fa28 85e3 ee3f e1d6 1c8e 8d11 dcbf
000004c0: 5f43 2f1f 0b8c 0bc0 b580 67ce 8381 f73f
000004d0: b2c5 946e 2bbe 0840 1a86 f2d8 4ff9 e33f
000004e0: 1aa5 8ee5 4921 c2bf 606d 6ea3 fab2 c8bf
000004f0: f3dc cb8b 158d c5bf 17f3 b0ed 2536 993f
00000500: 33fa 053e 6d63 f9bf d744 cf7f a966 e7bf
00000510: 3d07 c273 658f f6bf b69e c374 cb84 d63f
00000520: 002a 0800 51d9 dabf 96f3 a00b 2469 e63f
00000530: 4841 7c0f e99f cfbf a0d3 51b5 7651 f63f
00000540: a40c 8f92 ae53 d33f 0bdb c2b4 f1c8 0840
00000550: e048 efaa 7274 05c0 8812 6bf8 ae46 edbf
00000560: 7316 9549 f865 f43f f6c5 3a3e d09a 0c40
00000570: 53dc 1d64 fc80 d6bf f601 7788 a69e af3f
00000580: c22f d5f9 ce7b d4bf 8201 9499 9f20 fe3f
00000590: 4209 8346 0f01 dabf b19e ee46 c5c6 ee3f
000005a0: b9cb df77 f4f1 dcbf a0ca fd9c 72cb fcbf
000005b0: 682a e8b3 0c61 dc3f b1f0 7efc 83c5 e63f
000005c0: 69a3 7a1c 2a43 fd3f 1544 735a 38fe c3bf
000005d0: ae48 0a40 49f0 ebbf af23 f390 b877 e93f
000005e0: 1f90 be26 fec9 d53f fd0c c6a5 2467 d93f
000005f0: 0d90 ab6b 3978 babf 66cd 2622 6641 fa3f
00000600: 9db7 172f a9b8 e03f a83e 981a 7b8c 0540
00000610: b1f5 a088 ed23 f93f 2bfd 1098 3fd3 ed3f
00000620: b71b e29e 9069 02c0 67cb d90c 0342 eb3f
00000630: a4db a6b3 1105 e33f 9458 78ab 8859 f23f
00000640: a44d 7a0b 0ea2 f73f 261e 39e1 4424 e2bf
00000650: 5bf1 6680 26a5 f23f f73a c924 7172 e9bf
00000660: 4f1d b383 ee1d 0640 a204 a5fa 7c23 febf
00000670: 41bb 63b0 7feb 03c0 ef0f dadd ffac 02c0
00000680: 2f82 4b23 a626 f4bf 069e 1edd 9b52 f9bf
00000690: 26a6 08e0 6821 0640 53e3 7301 268d ddbf
000006a0: eda3 74e4 9b61 febf 0fa4 341b 3237 f93f
000006b0: 08be dce5 048b eabf 5981 5ebc 9efc fbbf
000006c0: ce6b a5a7 66d1 f33f d3c0 7b82 cc35 ec3f
000006d0: bf96 e693 13af e3bf 3c01 8fb4 57d9 ff3f
000006e0: 5a11 219a b05e c73f afa6 42b0 2f4b 0240
000006f0: ba7e 7f5d 5fc0 e63f aea5 6379 c8a2 0140
00000700: 1625 be2b d3cd c33f 61fc eea6 8399 fbbf
00000710: b733 3d1f 21b6 0b40 5e5f 4261 ecb2 e8bf
00000720: e8fd 80f0 2aff d1bf 8836 6874 48b2 efbf
00000730: cc4e 99f9 be68 d2bf 0979 f226 c4f6 d53f
00000740: 0d47 1349 8044 d23f 659e fbb7 13ea ed3f
00000750: a21e 0b06 a546 0440 f347 c054 71ce c5bf
00000760: bb9c 4290 ffe6 fbbf 69e5 aad8 b7c0 fabf
00000770: b273 2899 ec20 eebf 7abe 0c30 fdf0 02c0
00000780: 901f aa4e 15ab f23f 6fea 7526 ec8b e6bf
00000790: 4e9f 4b6f ab25 dcbf 8b1a c894 cce9 65bf
000007a0: 27bd f8f3 169a ffbf 7e0f 4afd 467d f3bf
000007b0: 88a7 367a b188 ee3f 6df9 5c38 ecfd eb3f
000007c0: 7a3e c787 400e e4bf 0ac5 f686 de7b 0440
000007d0: 307b 9408 948b fdbf 11ee dc7c 8439 dfbf
000007e0: b68b a89f aae4 d4bf f9ba de65 a399 0fc0
000007f0: 79b8 7ad0 aeeb 0540 5c2f d41b 0b94 e03f
