sim_data/simulated_parameters_10000_SNPs.npz (npz, 81798 bytes, 6 tensors)

sigma_e2 f8 []
4828.861904695902
00000000: 2b41 c9a5 dcdc b240

sigma_g2 f8 []
4828.861904695902
00000000: 2b41 c9a5 dcdc b240

h2 f8 []
0.5
00000000: 0000 0000 0000 e03f

beta f8 [10001]
32.48690727326483 32.48690727326483 -12.235128273001507 -10.563435045269113 -21.45937244312341 17.30815258649357 -46.03077393760565 34.8962352843296
-15.224138017902057 6.380781921141971 -4.987407509548202 1.462107937044974 -2.060140709497654 -0.3224172040135075 -0.38405435466841564 1.1337694423354374
-1.0998912673140309 -0.17242820755043575 -0.8778584179213718 0.04221374671559283 0.5828152137158222 -1.1006191772129212 1.1447237098396141 0.9015907205927955
0.5024943389018682 0.9008559492644118 -0.6837278591743331 -0.12289022551864817 -0.9357694342590688 -0.2678880796260159 0.530355466738186 -0.691660751725309
-0.39675352685597737 -0.6871727001195994 -0.8452056414987196 -0.671246130836819 -0.01266459891890136 -1.1173103486352778 0.23441569781709215 1.6598021771098705
0.7420441605773356 -0.19183555236161492 -0.8876289640848363 -0.7471582937508376 1.6924546010277466 0.05080775477602897 -0.6369956465693534 0.19091548466746602
2.100255136478842 0.12015895248162915 0.6172031097074192 0.3001703199558275 -0.35224984649351865 -1.1425181980221402 -0.3493427224128775 -0.2088942333747781
0.5866231911821976 0.8389834138745049 0.9311020813035573 0.2855873252542588 0.8851411642707281 -0.7543979409966528 1.2528681552332879 0.5129298204180088
-0.29809283510271567 0.48851814653749703 -0.07557171302105573 1.131629387451427 1.5198168164221988 2.1855754065331614 -1.3964963354881377 -1.4441138054295894
-0.5044658629464512 0.16003706944783047 0.8761689211162249 0.31563494724160523 -2.022201215824003 -0.3062040126283718 0.8279746426072462 0.2300947353643834
0.7620111803120247 -0.22232814261035927 -0.20075806892999745 0.1865613909882843 0.4100516472082563 0.19829972012676975 0.11900864580745882 -0.6706622862890306
0.3775637863209194 0.12182127099143693 1.1294839079119197 1.198917879901507 0.18515641748394385 -0.3752849500901142 -0.6387304074542224 0.4234943540641129
0.07734006834855942 -0.3438536755710756 0.04359685683424694 -0.6200008439481293 0.6980320340722189 -0.4471285647859982 1.2245077048054989 0.4034916417908
0.593578523237067 -1.0949118457410418 0.1693824330586681 0.7405564510962748 -0.9537006018079346 -0.26621850600362207 0.03261454669335856 -1.3731173202467557
0.31515939204229176 0.8461606475850334 -0.8595159408319863 0.35054597866410736 -1.3122834112374318 -0.038695509266051115 -1.6157723547032947 1.121417708235664
0.4089005379368278 -0.024616955875778355 -0.7751616191691596 1.2737559301587766 1.9671017492547347 -1.857981864446752 1.2361640304528203 1.6276507531489064
0.3380116965744758 -1.199268032335186 0.8633453175440216 -0.18092030207815046 -0.6039206277932573 -1.2300581356669618 0.5505374959762154 0.7928068659193477
-0.6235307296797916 0.5205763370733708 -1.1443413896231427 0.8018610318713447 0.04656729842414554 -0.18656977190734877 -0.10174587252914521 0.8688861570058679
0.7504116398650081 0.5294653243527092 0.13770120999738608 0.07782112791270591 0.6183802619985245 0.23249455917873788 0.6825514068644851 -0.31011677351806
-2.434837764107139 1.038824601859414 2.1869796469742577 0.44136444356858207 -0.10015523328349978 -0.13644474389603303 -0.11905418777480989 0.0174094083000046
-1.1220187287468883 -0.5170944579202279 -0.997026827650263 0.2487991613877705 -0.29664115237086275 0.4952113239779604 -0.17470315974250095 0.986335187821242
0.21353390133544178 2.1906997289697334 -1.8963609228910925 -0.646916688254908 0.901486891648711 2.528325706806398 -0.24863477771546005 0.043668993178389105
-0.22631424251360518 1.3314571125875918 -0.2873078634760189 0.6800698398781045 -0.3198015988986712 -1.2725587552459943 0.31354772046343216 0.5031848134353261
1.2932258825322618 -0.11044702641731631 -0.6173620637123609 0.5627610966190263 0.24073709223773224 0.28066507712263905 -0.07311270374727777 1.1603385699937696
0.36949271637572373 1.9046587083409812 1.1110566985605046 0.6590497961002102 -1.6274383406162574 0.602319280295629 0.42028220364705954 0.8109516728035557
1.0444420947072588 -0.40087819178892664 0.8240056184504077 -0.5623054310190898 1.9548780750090344 -1.3319516665172482 -1.7606885603987834 -1.6507212658241002
-0.8905555841630485 -1.119115398559728 1.956078903703642 -0.32649949807818424 -1.342675789377436 1.114382976779792 -0.5865239388215925 -1.2368533765413974
0.8758389276492995 0.6233621765780327 -0.4349566829552277 1.4075400002412286 0.12910157971072544 1.6169495988573002 0.5027408819999043 1.5588055406198593
0.10940269642542817 -1.2197443969790327 2.4493686490613973 -0.5457741679825677 -0.19883786288889674 -0.7003985049212547 -0.20339444896455844 0.24266944108179458
0.20183017887400403 0.6610202875986929 1.792158208975567 -0.12046457178850745 -1.2331207354464266 -1.1823181265096336 -0.6657545181991266 -1.674195807618932
0.8250298244389859 -0.4982135636310781 -0.3109849783028509 -0.0018914828380037015 -1.396620424595432 -0.861316360776042 0.6747115256879723 0.6185391307862932
-0.44317193070063776 1.8105349141254563 -1.3057269225577375 -0.34498721015497946 -0.23083974313546946 -2.79308500014654 1.9375288136160798 0.36633201454005826
00000000: b26d 3ffa 523e 4040 b26d 3ffa 523e 4040
00000010: 18d0 a5bb 6278 28c0 c6b3 e98e 7a20 25c0
00000020: 0fe6 b36e 9975 35c0 ee2a 8116 e34e 3140
00000030: efca 7f66 f003 47c0 c3db 79d6 b772 4140
00000040: f45b e137 c272 2ec0 edd9 28b2 eb85 1940
00000050: 5c56 45f4 1af3 13c0 7648 cd4a cb64 f73f
00000060: f49a 630d 2b7b 00c0 36f8 b9c4 7ba2 d4bf
00000070: 94fb 4bb7 5894 d8bf cb8e 406d eb23 f23f
00000080: ec50 e495 2799 f1bf 8823 2ba4 2012 c6bf
00000090: eeb2 6f89 6a17 ecbf 0c92 2b4b 0a9d a53f
000000a0: a2a9 5017 6ca6 e23f c6ad b7da 229c f1bf
000000b0: 9278 0bcf c950 f23f 1657 6ac8 d4d9 ec3f
000000c0: fb46 0002 6f14 e03f 07ed 0fdb cfd3 ec3f
000000d0: 4392 503f 19e1 e5bf c2c4 99db bb75 bfbf
000000e0: e4a6 97bd d2f1 edbf ccd8 3e0b 1425 d1bf
000000f0: 80a6 1c07 acf8 e03f 86c8 92ba 1522 e6bf
00000100: 37d2 9ae7 6864 d9bf 5bf7 369a 51fd e5bf
00000110: e536 94b3 ec0b ebbf 7357 702a d97a e5bf
00000120: 7a9c 63b1 e5ef 89bf 1cef edd0 80e0 f1bf
00000130: 188f e565 5501 ce3f 8f43 48ba 8c8e fa3f
00000140: fac1 3b65 d3be e73f b236 cd3f 118e c8bf
00000150: 6041 77db 7467 ecbf 500a 9382 b8e8 e7bf
00000160: f90f 9646 4b14 fb3f f3de 4a5a 7903 aa3f
00000170: 40b6 b6b1 4462 e4bf 4d2f 7929 eb6f c83f
00000180: 0e76 a390 52cd 0040 63ef 3ab3 bcc2 be3f
00000190: 09da 65bc 20c0 e33f 2d2b dc92 fd35 d33f
000001a0: d47b adf0 428b d6bf 6970 7929 c147 f2bf
000001b0: 77f8 f693 a15b d6bf 0176 55d6 0bbd cabf
000001c0: 797c a6ff 9dc5 e23f 1e47 8fbe f3d8 ea3f
000001d0: 44f6 8d97 96cb ed3f 42a0 870f 1047 d23f
000001e0: 445b 1c90 1353 ec3f f602 9826 0724 e8bf
000001f0: 44d4 8e7a bf0b f43f 00d5 7acc eb69 e03f
00000200: 9409 7cf8 f313 d3bf b463 b89d e143 df3f
00000210: 0a9a edf3 aa58 b3bf 05be a46a 271b f23f
00000220: 5c1b 2770 2b51 f83f c103 70f5 0e7c 0140
00000230: 807c 9e8a 0c58 f6bf e85a e013 171b f7bf
00000240: abb5 e997 9524 e0bf dc8a b63d 187c c43f
00000250: c0e7 be67 9309 ec3f fe26 f8eb 5c33 d43f
00000260: 0c2a bfd4 772d 00c0 1824 09b7 d898 d3bf
00000270: 0b4b 7dad c47e ea3f 3097 af89 be73 cd3f
00000280: 550c 5445 6562 e83f 24f7 bea2 3f75 ccbf
00000290: a731 3bbe 70b2 c9bf 75d7 7e60 3ee1 c73f
000002a0: 858b 9b43 493e da3f 0f0e 609e e261 c93f
000002b0: 2e2d afc1 5977 be3f 06b4 48c1 1076 e5bf
000002c0: f9be 994c 012a d83f 3989 ddc6 ad2f bf3f
000002d0: 8570 ddb7 5d12 f23f 1c44 cc83 c42e f33f
000002e0: cc78 de9a 34b3 c73f a65a d42a ab04 d8bf
000002f0: a240 5fc0 7a70 e4bf 9fbe 2f10 881a db3f
00000300: 4e3b 3a08 8fcc b33f 7efa cbd8 b201 d6bf
00000310: ec7a 9fc4 5352 a63f d8fc 8702 0cd7 e3bf
00000320: 35d1 bc46 4756 e63f f93f b720 c19d dcbf
00000330: 2a6f 1d64 9597 f33f 72da 6c9b ced2 d93f
00000340: 6028 1d63 98fe e23f 525f 9748 c284 f1bf
00000350: 6d7f 40d5 52ae c53f 409c 4971 a3b2 e73f
00000360: 6019 de1f b784 eebf ca08 3858 b909 d1bf
00000370: 68fb d796 dab2 a03f df7e 00de 49f8 f5bf
00000380: 2554 764c 922b d43f dc46 917e bf13 eb3f
00000390: 1e73 0893 2781 ebbf 6fd3 8666 586f d63f
000003a0: c591 e5e3 1cff f4bf 6c79 99d5 e5cf a3bf
000003b0: 7bb4 d31c 34da f9bf 6c70 e0b1 53f1 f13f
000003c0: d459 7029 6d2b da3f d677 a7f1 2f35 99bf
000003d0: 3345 6ebd 1fce e8bf 5ae3 f1e5 4d61 f43f
000003e0: 7241 0faf 3f79 ff3f 2cc2 0531 4bba fdbf
000003f0: 2495 34ef 53c7 f33f 6259 2184 db0a fa3f
00000400: 79fb 9ccf fba1 d53f 4c49 20ad 3330 f3bf
00000410: ac33 005c 86a0 eb3f 20d6 4d7e 6528 c7bf
00000420: fb0e 385a 5153 e3bf b0e4 8d70 51ae f3bf
00000430: 0311 8ecf 009e e13f 125f 2581 ac5e e93f
00000440: b6d2 80b7 f6f3 e3bf b5a6 d9b4 8fa8 e03f
00000450: dd3f beea 384f f2bf 2b60 7a77 d8a8 e93f
00000460: 11ed 963f abd7 a73f b3d2 61ae 84e1 c7bf
00000470: 8602 047b 040c babf c231 8957 eacd eb3f
00000480: 0b41 7845 5f03 e83f d8bf 8e43 61f1 e03f
00000490: b379 c778 31a0 c13f e1a9 52df 15ec b33f
000004a0: 81d1 3867 c5c9 e33f bdd6 15b8 61c2 cd3f
000004b0: ce4b 4a0c 76d7 e53f eede 0c06 f4d8 d3bf
000004c0: 553f bf38 8c7a 03c0 3143 b48b 069f f03f
000004d0: 2f2d 662f ef7e 0140 92a2 afa6 503f dc3f
000004e0: 6bd3 79fb c5a3 b9bf a94d 5f78 0577 c1bf
000004f0: aed4 f1d2 557a bebf 6238 2a9d c5d3 913f
00000500: 647a 17e9 c9f3 f1bf 2eba 36ad 098c e0bf
00000510: a0c2 3fce a4e7 efbf b962 b7a2 a6d8 cf3f
00000520: b028 052c 2bfc d2bf 6207 46d6 8ab1 df3f
00000530: 3c0b cd52 ac5c c6bf 93c2 d2cf 0e90 ef3f
00000540: 7f58 6931 1455 cb3f a13f 5a94 8d86 0140
00000550: 86ac 138d 7e57 febf 9e53 69a0 8ab3 e4bf
00000560: d3ec ac09 fbd8 ec3f def4 02d4 023a 0440
00000570: 20d3 77af 43d3 cfbf bdd1 1943 c85b a63f
00000580: 6383 1b77 ddf7 ccbf db71 29f9 a54d f53f
00000590: 30d7 6085 4063 d2bf a1b7 28d3 21c3 e53f
000005a0: 829c 1e20 a177 d4bf fa51 c091 665c f4bf
000005b0: f60c 4875 2a11 d43f 068e b109 171a e03f
000005c0: 9f11 7d9f 0db1 f43f 511f 679e 4146 bcbf
000005d0: eaf0 2d16 6ec1 e3bf f512 2e8f 2302 e23f
000005e0: 5d2f 0c19 79d0 ce3f 53bf d7a7 6af6 d13f
000005f0: 1a46 849f 83b7 b2bf 0392 262d bf90 f23f
00000600: 7769 3cc7 c4a5 d73f 9ddb e568 7b79 fe3f
00000610: 061b 8563 e3c6 f13f a8f2 1599 ef16 e53f
00000620: db40 13c9 fc09 fabf e8d6 5315 3346 e33f
00000630: d150 f053 e7e5 da3f 0c7d 2aec 50f3 e93f
00000640: a755 f5e9 08b6 f03f 816f da00 fda7 d9bf
00000650: 46df de07 415e ea3f b6e2 92f5 67fe e1bf
00000660: c04c 7d3b 2e47 ff3f 5eb5 f88c ac4f f5bf
00000670: 60aa 95c4 c72b fcbf 736b b8b3 5a69 fabf
00000680: d703 a86c 6e7f ecbf 7f39 548c e5e7 f1bf
00000690: c2d7 7c64 194c ff3f 72ff 9926 5ee5 d4bf
000006a0: f71c c89b 997b f5bf 37d0 873e 83d4 f13f
000006b0: 3fea f1d9 cdc4 e2bf 6114 23c4 26ca f3bf
000006c0: 9028 da5b df06 ec3f b3e9 3e3c 95f2 e33f
000006d0: ba09 1e8e 54d6 dbbf 0991 cda9 4885 f63f
000006e0: ac18 5c8b 6686 c03f 72f5 e58a 06df f93f
000006f0: 37a8 d10b 7416 e03f 0793 1c14 def0 f83f
00000700: 5dce 3dab d001 bc3f 2611 68b3 1284 f3bf
00000710: fe87 1c97 4e98 0340 5d93 4f63 fb76 e1bf
00000720: 693c 28e3 8473 c9bf 0ebb 1920 aa69 e6bf
00000730: e6cf 3e4d d408 cabf 05ab 97d0 ca0f cf3f
00000740: e909 ce40 92d5 c93f 2753 a704 1427 e53f
00000750: 8bed 0c16 aeac fc3f 4885 2824 c4d6 bebf
00000760: 9f30 ecce dcba f3bf d93a 6d69 c6ea f2bf
00000770: 258b 5a6b dc4d e5bf 8d2d 0d8b 81c9 fabf
00000780: 0515 46f2 a466 ea3f a905 8e24 bbe2 dfbf
00000790: b4e9 d689 2de7 d3bf a2ec 873b 74fd 5ebf
000007a0: 1b02 89a8 8e58 f6bf ed5e 2154 e78f ebbf
000007b0: 260d 22a0 3c97 e53f a9bf 4093 12cb e33f
000007c0: 9e52 37cd ed5c dcbf c6f5 4675 f3f7 fc3f
000007d0: 7b46 dee9 41e4 f4bf c2d9 493c 4514 d6bf
000007e0: 0a23 b11d 288c cdbf d09e d4f2 3c58 06c0
000007f0: b09e 9836 1e00 ff3f a659 7bd5 fb71 d73f

mean_Y f8 []
157.4230078914202
00000000: 3173 d847 89ad 6340

sd_Y f8 []
97.4567446817052
00000000: eea2 0b4e 3b5d 5840
